checkpoints/STGCN_best.pth (torch, 625698 bytes, 64 tensors)

block0.Theta1 f4 [64, 64]
00000000: b8bd f1bc 5c57 7fbc 028d 29bd dc8d 16be
00000010: 5e1d ba3d 5301 b23d c329 cebd 1f08 b5bd
00000020: cb8a 0cbd f789 adbd 75f5 3dbe 3b3e a7bd
00000030: 85ed e53d 82f3 36bd 3053 be3d c1ba 423d
00000040: 082e 9a3d 78df 3f3d ab4c 743d a831 ca3d
00000050: 93e9 03bd 96ae 82bb 10ab 70bd 14b2 31be
00000060: 2c0a a4bd 1898 cb3d cf6a de3b 0268 c3bd
00000070: c352 9ebc 5f92 dabc 31d5 d2bd 68ca 73bd
00000080: 62ff 743e c374 01be 1cfd 1c3d 812e e23c
00000090: 817b 3b3e 78f4 2b3e 3d30 f53d c41a 923b
000000a0: 057b 38bd 4192 8cbe 90ad 0ebe 901d 22be
000000b0: 860f 80bd 8b26 383d f7af b0bc e97b 643d
000000c0: 2f93 96bd b4ec a1bd 29b5 02be 535c 023e
000000d0: 50ff 3bbd 42a8 04be 4f51 2bbd d9ce e6bd
000000e0: 38b1 023e 51dc 24bc 8a64 503d b372 0bbf
000000f0: 7a4b bc3d f941 183e 0ade 77bc c0e1 633c
00000100: 941d a53c e263 e83d 4e3b e3bd 2c4f b9bd
00000110: 729b cdbc 0898 e63d 09a7 223c 2066 f139
00000120: 8eeb cb3d 5165 e83d 713e b53a 6604 cb3d
00000130: 3392 d73d 0ce0 003e 4530 e5bd 6ccb 12be
00000140: 26b1 543d ed7b 1b3e 939d 9d3d 7d27 debd
00000150: bda8 fb3c 1810 833e 2e83 99bc 55aa c1bd
00000160: 684c c03d d3c2 6b3d 5780 c03d 5c5c 963b
00000170: 413a 37bc 7114 e2bc ebd8 703d 7874 24be
00000180: 710b 39be f381 7dbd 6306 c0bc 52de 9cbb
00000190: 96e1 e63d 3f7a f03d 5931 53be 4df5 3cbc
000001a0: 98d5 0bbc 0485 8cbe 95a4 d0bd 97a9 413e
000001b0: 80f3 e23d db41 1b3d c75a 05bd 9655 0d3e
000001c0: ce31 203e 3e11 083e ce1f 7dbd 67af 7d3e
000001d0: 16fb bf3d 9f6d 2e3e e285 2e3d 8df4 d7bb
000001e0: be8c 003e 2128 d33d 567f 9a3d 98be 10be
000001f0: de70 93be 575a 71be 9f35 6abe 66c5 183d
00000200: c892 8b3d a43f 903e 5c33 7c3e 0171 0e3e
00000210: fffa 03bd aab7 0b3e bec1 4d3d 1b34 d6bc
00000220: c3fe 813d 56f0 d33d 927c 793d 4249 353e
00000230: 42b4 423e aa76 1e3e 8eb0 59bd f9f8 12be
00000240: 8fc7 bebd eaa7 533d c627 05be 970f 86bd
00000250: 72db 2c3e e314 8b3d 61bd 483e 80be 043e
00000260: 815a 313d 633a c2bd 0849 43bd 05db 4b3d
00000270: 04bb 11bd 2959 843d ece6 933d 1208 0abe
00000280: 5f95 abba f869 a63c 291f 933d 20a8 8a3d
00000290: 6ca6 c43d df2e 083e 6a5f 35bb c1f3 1fbd
000002a0: e4d5 f23d e2cb cd3b 6618 bcbd 191b 373e
000002b0: 7f7a 7cbc e2c7 093d f67d 333d ef9b c4bc
000002c0: 3262 343d b4e6 8cbd 0711 2dbd 8ff4 0cbe
000002d0: 4cc5 19bd e01d c1bd 8e1e d7bd 237c 0bbd
000002e0: e8d1 c93d 3a60 24bd 357a 413d 3514 b4bd
000002f0: 4742 bbbd 6367 88be a5d8 5a3d 59b7 66bd
00000300: c778 00bb a9d7 ebbc 69a4 b1bd 2064 053e
00000310: f15c 153c d4f6 89bd 5068 50bd 5e1e 9dbd
00000320: 903b a4bd b7b2 89bd 8bc6 5ebd c6de 7e3d
00000330: 6be8 153d 0efa 2fbe e53f 073d bcb8 13be
00000340: da0e 9c3d cebf 923d 2629 ee3d 953b 26bc
00000350: 25fa 1ebd 3793 cc3c 40d5 f23c 77c3 9f3d
00000360: 93bc 8cbd d592 4a3d 617d a1bc cb6d 7b3e
00000370: 02a1 043e 8f57 e6bc cd78 d13d 79aa d43d
00000380: cb00 833e ce28 90bd 3aaa 82be 439c 7dbd
00000390: 92ea 1dbe b1a6 21bd b510 893d fa7a b83d
000003a0: cea4 643c f432 973e 8580 043e 6d52 f03d
000003b0: ee5f 9fbd 715e 663d 7f63 9d3c 46ad b43d
000003c0: ffaf 4bbd 7a4c f3bd 4a6e 85bd 1293 c1bc
000003d0: 860a 10be 3915 8a3d 45f2 1bbc 381b ddbc
000003e0: f200 f4bd f2e8 1cbc b4b0 8abc 543b b33d
000003f0: 841a 563e 24da b33e 6db1 d63d a8cd 9f3d
-0.02950941 -0.015584793 -0.04139424 -0.14702553 0.090876326 0.08691659 -0.10066559 -0.088394396
-0.03431205 -0.0847358 -0.18550666 -0.081661664 0.11226944 -0.04466582 0.092932105 0.047541384
0.07528311 0.046843976 0.05964343 0.098727524 -0.032205176 -0.0039880974 -0.058756888 -0.17353088
-0.08009753 0.09941119 0.006787635 -0.09541322 -0.019326573 -0.026681123 -0.10294569 -0.0595192
0.23925546 -0.12642197 0.03832732 0.027610065 0.18308832 0.16792476 0.11972091 0.004458757
-0.045039196 -0.27455333 -0.13933396 -0.1583159 -0.06252961 0.044958632 -0.021568282 0.055782232
-0.07352292 -0.07906476 -0.1276442 0.12730531 -0.04589778 -0.1295481 -0.04182559 -0.11269922
0.12762916 -0.010062293 0.05087713 -0.5447189 0.091940835 0.14868917 -0.015128622 0.013908803
0.020155706 0.11347176 -0.11095296 -0.09048304 -0.025098536 0.112594664 0.00992752 0.0004604319
0.09957038 0.113474496 0.0013827813 0.09912948 0.10525932 0.12585467 -0.11190847 -0.14335412
0.051926754 0.15183993 0.076960705 -0.108473755 0.03072011 0.25598216 -0.01873931 -0.094563164
0.09389573 0.057558846 0.09399479 0.004588647 -0.011183322 -0.027597638 0.05880062 -0.16060054
-0.18070771 -0.061891507 -0.023440545 -0.004787245 0.11273496 0.117420666 -0.20624293 -0.011533094
-0.008534811 -0.27445233 -0.101876415 0.1891235 0.110816 0.0379046 -0.032557275 0.1380218
0.15643999 0.13287827 -0.06179791 0.24773942 0.09374063 0.17034005 0.04260815 -0.006590432
0.12553689 0.10310388 0.07543819 -0.14135206 -0.28797048 -0.23569618 -0.22872017 0.03729763
0.06815106 0.28173554 0.24628967 0.13910295 -0.03222179 0.13644281 0.050233595 -0.026147893
0.0634742 0.10348575 0.060909815 0.17703727 0.19014075 0.15474954 -0.05314689 -0.14352788
-0.093154065 0.051673807 -0.13003454 -0.06545942 0.16880587 0.06791093 0.19603492 0.12963295
0.043299202 -0.09483793 -0.04767707 0.04976942 -0.035578743 0.064623185 0.07221779 -0.13479641
-0.0013090781 0.020314202 0.07183678 0.067703485 0.09602055 0.1329913 -0.002767528 -0.03905082
0.11857203 0.0062804082 -0.09184341 0.1788143 -0.015410065 0.03363789 0.043821298 -0.024000136
0.04403896 -0.06879941 -0.042252567 -0.13765167 -0.037541673 -0.09429526 -0.10503875 -0.034053933
0.098544896 -0.04013083 0.047235686 -0.08792917 -0.09143501 -0.26641378 0.053429265 -0.056327198
-0.001960324 -0.028789358 -0.08673937 0.13026476 0.009116397 -0.06736532 -0.05088073 -0.07671808
-0.08019173 -0.0672354 -0.054388564 0.062224172 0.036598604 -0.17185232 0.03301992 -0.1442594
0.0762002 0.0716549 0.11628942 -0.010146041 -0.038812775 0.024972541 0.029642701 0.07800954
-0.06871905 0.049456436 -0.019713106 0.24553601 0.12952045 -0.028117923 0.10228119 0.103840776
0.25586542 -0.07039033 -0.25520498 -0.0619166 -0.15421513 -0.03946561 0.0669264 0.09007831
0.013955308 0.29531062 0.12939651 0.117344715 -0.07781969 0.05624241 0.019212482 0.08822112
-0.04972839 -0.11879821 -0.065151766 -0.023629699 -0.14066514 0.06742329 -0.009518211 -0.026990518
-0.11914243 -0.009577023 -0.016929962 0.0875155 0.20908552 0.35127366 0.1048306 0.07802898

block0.temporal1.conv1.weight f4 [64, 7, 1, 3]
00000000: c246 e63d a741 c5bd 0047 2dbd 0ac4 d13d
00000010: 705e 52be 8902 063e ace1 37bd e65c e33d
00000020: 3083 f83c e0e2 dabc 2ce9 773d 0060 303c
00000030: 6639 a33d 5029 aebd b055 82bc c0ef a0bc
00000040: cc8d 013d 0086 64ba 4756 433e f612 8b3d
00000050: a26e a6bd 50f5 06be 7cd1 15bd 45c5 c0bd
00000060: 3436 8fbd b030 2b3c 3335 053e 7ee9 f23d
00000070: 5270 5abe 3f86 0a3e 7cb3 793d a7f5 533e
00000080: 677e 133e 3099 4bbe 8876 54be 258f d7bd
00000090: f337 443e fce1 14bd 6a42 bf3d 2eaf cfbd
000000a0: 1942 5b3e 4816 bdbd 1593 273e 4059 293b
000000b0: ab70 ebbd eeb7 e53d 9d3a edbd 3a70 833d
000000c0: 6e0c 81bd a8fc c3bc bdd3 56be 2214 d5bd
000000d0: 3a82 f23d 7844 59bd 8792 5e3e 791e 333e
000000e0: 6068 27bc 0c27 15be 6313 083e a6b3 8a3d
000000f0: 2072 10be e124 113e f7a8 073e 652e 463e
00000100: 1485 fabd d020 13bd 0085 8abb 948c 023d
00000110: 8d95 29be 9a91 1ebe 061f f33d fc97 51bd
00000120: c64d da3d a0d3 4b3c 9ebd 923d 7c8a 443d
00000130: 0e7f a23d c689 dd3d caf1 4ebe f2f3 e03d
00000140: d21d 1dbe 5199 28be b06d 593c 3c50 18bd
00000150: 953d 033e 2c69 01be c7a5 46be a99f 223e
00000160: 9089 04bd 2e5e fb3d beac 8f3d 4090 27be
00000170: 2491 333d 54b1 563d c69d 15be e90b d4bd
00000180: b262 983d 7c1a 203d 761a bebd 6e49 87bd
00000190: 9fa8 4c3e 3460 25bd daf6 fb3d 7a83 c13d
000001a0: 6871 10be 6808 3ebe f77d 563e 90b0 3a3c
000001b0: 4b2b 193e 4c3a 393d 8abc 8f3d 67e9 263e
000001c0: 27e2 533e d447 14be c881 df3c 49c1 263e
000001d0: f5e0 213e a5d1 0a3e fcb7 21be 36e9 20be
000001e0: aa23 07be 1094 e03c bbb5 5e3e b226 0dbe
000001f0: 6226 ee3d 095c f7bd 9518 52be e8f8 3dbd
00000200: 93bf 003e 3b73 4f3e 38c6 0abe 14f8 413d
00000210: 7fcf 403e c712 143e 2b43 0b3e 63cb 1e3e
00000220: cb56 0d3e dcde 663d 98cd 18be faa5 3bbe
00000230: 92c8 ccbd d829 d0bc a2f7 08be f680 a33d
00000240: 3250 8a3d 7c64 4abd 0ec4 ab3d 3e6f 903d
00000250: 956d 083e 057c 163e ee58 97bd 4752 5a3e
00000260: 48aa cebc 20aa f5bb 33ea 52be c0d1 0fbe
00000270: 138b 02be 5d27 bfbd abde 1e3e b20a 92bd
00000280: dbfb 26be daf2 ab3d 4a16 8f3d d3ba 103e
00000290: 7c43 e7bd 2ccb 413d aeb2 a2bd a0d1 48bd
000002a0: 5413 32be 2aaf cbbd a6de 88bd 561d bf3d
000002b0: a44a 233d d4c9 5c3d 1f08 5f3e 17c9 593e
000002c0: 2d68 183e 00b3 e33b 9795 1abe e1a1 2e3e
000002d0: 0483 5fbd c085 90bc a081 40be 1c8e 30bd
000002e0: 3620 10be 9155 4d3e 812e 41be ee2d 2ebe
000002f0: 80ce f2bb baa6 f1bd e2e8 9f3d f606 acbd
00000300: 7fe8 d1bd e07e 4a3c 3bc2 213e 032f 1dbe
00000310: 32df d13d 8b8e 0f3e 4b95 5a3e 3467 1cbe
00000320: 6c79 583d 8d3a 25be 5dc6 3e3e fc5b adbd
00000330: 4b99 063e 00e2 d43b e839 8bbc a028 e4bb
00000340: ccf1 173d f6ab d23d cc59 0f3d 0a55 883d
00000350: df00 49be a1cb 223e 8dd2 423e 95b5 383e
00000360: df2e 253e 9240 21be 6cab a5bd ab06 453e
00000370: 4e32 2abe 25b9 4a3e 1fbf 2fbe 5867 1dbe
00000380: 0e7c da3d d18c 20be 60c6 4cbd d18f 223e
00000390: 0fff 303e 7f55 533e 2c5f 35bd d3ae 2dbe
000003a0: 2f04 5c3e 3c68 3ebd e4df b7bd dce3 593d
000003b0: 8444 1cbe 65df 123e f10b 0c3e b54e 31be
000003c0: 358a 37be 4897 9cbc b6b6 bb3d 8018 cfbb
000003d0: 409e e2bd c07a a33b 5d08 52be ebed 1dbe
000003e0: 6fc0 14be a705 383e 1dfa 443e f0cc 97bd
000003f0: 405a 203c e64f c73d c030 d63c 9dca dfbd
0.11243965 -0.09631663 -0.04230404 0.102424696 -0.20543838 0.13086905 -0.04489295 0.11101703
0.030335993 -0.02671951 0.060525104 0.010765076 0.07969932 -0.085039735 -0.01591 -0.019645572
0.03162937 -0.00087174773 0.19075881 0.06790726 -0.0812657 -0.13179517 -0.036576733 -0.09412626
-0.0699276 0.01044862 0.13008575 0.11860941 -0.2133191 0.13527773 0.060962185 0.20699178
0.14403687 -0.19882655 -0.20748341 -0.105253495 0.19161968 -0.036348328 0.09338839 -0.10140835
0.21411933 -0.092327654 0.16364701 0.002584055 -0.11496099 0.112167224 -0.11583445 0.0641789
-0.06301199 -0.023924187 -0.20979209 -0.10404231 0.11841245 -0.053043813 0.21735583 0.17492093
-0.010217756 -0.14565676 0.13288645 0.067725465 -0.14106035 0.14174224 0.13248049 0.19353636
-0.12232414 -0.035919964 -0.0042272806 0.031872347 -0.16560955 -0.1548523 0.118711516 -0.051170334
0.10659365 0.012440592 0.07165073 0.04798363 0.0793439 0.10817294 -0.20209423 0.10984029
-0.15343407 -0.16464736 0.01327078 -0.037185892 0.1281646 -0.12637776 -0.19399177 0.15881218
-0.032357752 0.12273823 0.0701537 -0.16363621 0.04383959 0.052415207 -0.14610967 -0.10353834
0.074407 0.039087757 -0.09282391 -0.066058025 0.19986199 -0.04037495 0.123029426 0.09448905
-0.14105761 -0.18557894 0.2094649 0.011394635 0.14957921 0.04522161 0.07018383 0.16299973
0.20691739 -0.14480525 0.027283564 0.1628467 0.1580847 0.13556536 -0.1579284 -0.15713963
-0.13197199 0.027414352 0.21749012 -0.13784292 0.11628415 -0.12078101 -0.2051719 -0.046379954
0.1257308 0.202588 -0.13552177 0.047355726 0.18829153 0.14460288 0.13599841 0.15507273
0.1380264 0.05636488 -0.14922178 -0.18325034 -0.09999193 -0.025410578 -0.13375714 0.07983582
0.06753577 -0.049412236 0.08387004 0.07052468 0.13323052 0.14695747 -0.07390009 0.21320449
-0.02522768 -0.007497087 -0.20597152 -0.14044857 -0.12748365 -0.0933368 0.15514629 -0.07130946
-0.16307013 0.0839593 0.06986673 0.14133768 -0.112921685 0.0473129 -0.07944237 -0.04902804
-0.17390186 -0.09945519 -0.06683092 0.09331767 0.039866105 0.053903416 0.21780442 0.21268116
0.1488349 0.0069488287 -0.15096126 0.1705394 -0.054568306 -0.017641902 -0.18799448 -0.043104276
-0.14074787 0.20052172 -0.18865396 -0.17009708 -0.0074098706 -0.11799379 0.07808091 -0.08399765
-0.10249423 0.012359351 0.1579675 -0.15349965 0.10247649 0.1401922 0.21346013 -0.15273744
0.052850172 -0.16135617 0.18630357 -0.0846481 0.13144414 0.006496668 -0.016995385 -0.0069628507
0.03709583 0.10286705 0.034997746 0.06656845 -0.19629239 0.15897991 0.19025631 0.18038018
0.16131161 -0.15747288 -0.08089337 0.19240825 -0.16620752 0.1979719 -0.1716275 -0.15371454
0.10668193 -0.15678717 -0.049993873 0.15875174 0.17284797 0.20638083 -0.044280216 -0.16961221
0.21485971 -0.046486124 -0.089782506 0.05319582 -0.15260512 0.14343031 0.1367643 -0.1731518
-0.17923816 -0.019115105 0.09165709 -0.0063200593 -0.1106534 0.004988998 -0.20511003 -0.1542279
-0.14526533 0.17970906 0.19236036 -0.074121356 0.009787142 0.09732036 0.026146293 -0.10927317

block0.temporal1.conv1.bias f4 [64]
00000000: 144d f6bd 80b7 0fbe 5018 e9bd 583a b1bc
00000010: f0dd 713c 6c68 173d e25e e43d 568b b6bd
00000020: e8a4 0abe ac53 3cbd 5393 523e a866 dabc
00000030: 561e 3cbe 0b56 2f3e 5c7b 593d 5421 1b3d
00000040: 046c 193d 61e7 1b3e 6e7f cbbd 93db 223e
00000050: b7df 563e 4479 66bd 8d07 0d3e 8691 f63d
00000060: 0943 513e 0407 50bd fcec 04be bce4 a5bd
00000070: fe06 18be 4050 f53b 3f71 573e 35c8 583e
00000080: adc9 283e 48e3 b03c 603a 9b3b 4bf4 133e
00000090: 1daf 043e c065 b1bc c40f 62bd 9eb6 b03d
000000a0: 801d f8bb 5cfc 1cbe 1435 d2bd 3f38 353e
000000b0: ef17 3a3e be24 aebd fccf 3fbd c57f ddbd
000000c0: 80e7 91bd 45b1 4b3e e0bd 46be 4a42 d53d
000000d0: b7d6 48be be37 d5bd 8c03 36bd 50bd 773c
000000e0: 9027 11bd fa49 ccbd 8e56 c7bd cae9 07be
000000f0: 11f9 1bbe a437 0bbe 1b47 563e 3b92 d2bd
-0.1202642 -0.14034843 -0.1138159 -0.021634266 0.014762387 0.03696482 0.1115091 -0.08913295
-0.13539469 -0.045978233 0.20564012 -0.026660278 -0.18370947 0.17122667 0.05309616 0.03787358
0.037456527 0.15224983 -0.09936415 0.15904073 0.20983778 -0.05626799 0.13772412 0.12039475
0.20435728 -0.05078794 -0.12981027 -0.08100268 -0.14846417 0.007486373 0.21039294 0.21170123
0.16483183 0.021592751 0.0047371835 0.14448659 0.12957425 -0.021654963 -0.055190817 0.086285815
-0.007571876 -0.15330642 -0.1026403 0.17697237 0.18173192 -0.08503102 -0.04682921 -0.10815386
-0.07124233 0.19891842 -0.19408369 0.10413034 -0.19613157 -0.104110226 -0.044436976 0.015120819
-0.03543812 -0.099750474 -0.09733306 -0.13272777 -0.1523173 -0.13595444 0.20925562 -0.102817975

block0.temporal1.conv2.weight f4 [64, 7, 1, 3]
00000000: 96d2 39be d194 193e 0262 ad3d fbb4 193e
00000010: 0845 5ebe f2b3 54be b298 1ebe 0f6f ebbd
00000020: 00f2 fbb9 9250 c13d 0fd3 023e e231 40be
00000030: aa3b b23d da39 01be 2474 4d3d ae50 8c3d
00000040: 240a 0f3d 7e1e 9e3d 4085 32bc b985 133e
00000050: c46a 3a3d 5fc4 433e 9cc0 413d 5b95 ecbd
00000060: a780 0f3e 70b1 413c b9f4 573e 48b2 c5bc
00000070: fb16 5d3e cf71 02be ee9b e03d d8b2 26be
00000080: d168 193e a43f 223d 76ba fd3d 476f 40be
00000090: 5048 5ebe 9656 d73d 5add b7bd defe b03d
000000a0: ca92 04be e227 8abd 8023 803a df90 063e
000000b0: ba60 fc3d f8ae 9fbc 60d1 7cbd c004 78bb
000000c0: ae56 e63d d564 3dbe 388f 88bd f268 57be
000000d0: f004 013d a072 d3bc 222c fd3d ff82 323e
000000e0: c30f 3fbe 1dc9 c5bd b0b0 0fbd c09b 0ebb
000000f0: d807 4cbd 187f 0cbe 86af acbd 0026 b8bb
00000100: 8fb2 333e 00cb 63bd 6b91 133e 46a1 34be
00000110: 60e2 1f3c c860 2ebe cdae 51be b828 b13c
00000120: bda2 ccbd c582 243e 957f 303e 0169 5ebe
00000130: e029 79bc f4b2 18bd 5eba febd e900 1cbe
00000140: 601f bdbd 3250 c53d e484 543d e97c 063e
00000150: e03a 55bc 6e1d e83d 5cd8 2c3d 9ce7 42bd
00000160: 7003 51bc 213b 4bbe c036 a4bb 28d1 92bd
00000170: 968f 95bd 1e80 b3bd 786b 43bd cef8 24be
00000180: 00ce 513c 004d 11bc 2069 6bbd 9ff9 413e
00000190: e5f6 153e b46e 7c3d 689b a4bd c001 e43c
000001a0: b8bf 19be 4fb3 1b3e b1b6 503e 7c73 05bd
000001b0: 7b54 2c3e 5bb6 513e a0d2 56bc 0ef3 a5bd
000001c0: 6070 343c d4b5 133d a2d8 4ebe 6008 5fbc
000001d0: 9296 a1bd 531c 153e 2043 cdbb dd04 133e
000001e0: a1c2 463e 3e0f 8cbd fc65 403d 50eb 98bc
000001f0: 76c3 c2bd 31ea f7bd c076 a53b 72c8 873d
00000200: b434 1dbd 64ca 173d 53a4 0b3e 024f ba3d
00000210: 124b b83d 3432 7b3d 38c6 2bbe 0431 07be
00000220: a0b5 25be 39d7 123e efcf 44be afd3 26be
00000230: b528 133e fd15 043e 7d3c 53be bd1d 013e
00000240: 30f3 4bbd ec91 403d e4fa 0bbe 90ae 07bd
00000250: 44a8 463d cb61 2a3e b780 073e 4105 f3bd
00000260: 9492 12be b091 59bc 5242 8c3d 4e0a f53d
00000270: 78ac 5ebe 1815 92bc 40dd fc3b 21b7 d0bd
00000280: 533f 303e 9843 6dbd a20a 55be 866b 05be
00000290: c044 e53b d549 26be a428 4c3d b560 593e
000002a0: 405c 123c 4432 5cbd bf84 523e 93f6 243e
000002b0: 757d 143e 189a 873c e072 233c a54b 2dbe
000002c0: 80f8 b53c 3358 593e 7001 3d3c 7668 47be
000002d0: 1e4b f53d c38a 483e 0555 3b3e a0a0 283c
000002e0: 7cea 273d bca5 103d c82a b7bd 106b 02bd
000002f0: d14b 363e 6861 b63c 6d9a 523e a263 14be
00000300: 18a1 02bd 8096 273b 48fe 04be b786 2c3e
00000310: 4510 1c3e 9110 f1bd 47dc 443e 815d 503e
00000320: 4863 03be 20a3 f6bb 69b0 5e3e 7211 11be
00000330: 4807 0cbd 5059 19be 653c 213e 9ce5 103d
00000340: 460c ba3d 4b58 203e 14d1 0dbd eb5c 5fbe
00000350: c013 2f3c b857 8abc 7614 a23d 269d d03d
00000360: 613c debd 5009 b0bd 41dd 0c3e 4c73 7e3d
00000370: 0cc1 4c3d 1efb c63d 46cf cf3d 6a75 21be
00000380: 00bf 8e3c 98e5 aa3c 94d9 57be ccae 3d3d
00000390: c0d1 3ebb 9953 2d3e 7749 55be 5932 523e
000003a0: cbb4 dabd 71a4 033e 0315 253e d0cb ddbc
000003b0: 83a5 e4bd 0865 14bd 1a5c 0bbe b8f6 dc3c
000003c0: 82db bb3d 94b9 383d 90ae 00be 3a31 f43d
000003d0: ad0d 4d3e 76fa 87bd 5610 e83d 50a9 6bbc
000003e0: 3623 b43d 285d 1fbe f7ce 3ebe e0ff cabb
000003f0: ec47 3cbe 76fd a03d 132f 513e f44a 2fbd
-0.18146738 0.14998175 0.08465959 0.15010445 -0.21706021 -0.20771769 -0.15487936 -0.11495792
-0.00048054755 0.09439196 0.12775825 -0.18769029 0.08702786 -0.12619725 0.05015959 0.06851326
0.03492178 0.0772066 -0.010896027 0.1440648 0.045511976 0.19117878 0.047302827 -0.11551925
0.1401392 0.01182209 0.21089448 -0.024132863 0.21590798 -0.12738727 0.10967241 -0.16279161
0.1498139 0.039611474 0.1238908 -0.18792449 -0.21707273 0.10514562 -0.08977766 0.08642362
-0.1294662 -0.06745888 0.0009776205 0.13141201 0.12323137 -0.019492611 -0.061723113 -0.0037844628
0.112470016 -0.18495496 -0.06667942 -0.21036127 0.03149885 -0.025811493 0.12361933 0.17432784
-0.18658356 -0.096575 -0.03508061 -0.0021760315 -0.049812168 -0.13720357 -0.08431916 -0.0056197643
0.17548583 -0.055613518 0.14410941 -0.17639646 0.009758562 -0.17029107 -0.20476837 0.021625862
-0.09991977 0.1606551 0.17236169 -0.21719743 -0.015207738 -0.037280038 -0.124378905 -0.15234722
-0.092345 0.09634437 0.051884547 0.13133587 -0.013014525 0.11333738 0.042198524 -0.04758416
-0.012757167 -0.19846775 -0.0050114095 -0.071688 -0.073027775 -0.08764671 -0.047709912 -0.16110536
0.012805462 -0.008868456 -0.057473302 0.18942879 0.14644964 0.061629012 -0.08037454 0.027832866
-0.15014541 0.1520512 0.20382191 -0.032580838 0.16829102 0.2047972 -0.01311174 -0.08103
0.01101312 0.036062077 -0.20199826 -0.013612837 -0.07890047 0.14561586 -0.0062641054 0.14357324
0.19410183 -0.06838845 0.04697226 -0.018666893 -0.095099375 -0.12105215 0.0050495565 0.06630029
-0.03838034 0.03705825 0.13636903 0.09097101 0.089986935 0.061327174 -0.16774833 -0.13202292
-0.16182566 0.14339913 -0.19219945 -0.16291688 0.14370997 0.12899013 -0.20628543 0.12609
-0.04979247 0.047014162 -0.13669926 -0.03312546 0.048500314 0.16638868 0.13232695 -0.118662365
-0.14313728 -0.0132793635 0.06848587 0.11964856 -0.21745479 -0.017832324 0.0077168047 -0.10191179
0.17211656 -0.05792579 -0.20804837 -0.13029298 0.006996721 -0.16239102 0.049843445 0.21228297
0.008933127 -0.053758875 0.20558451 0.16109686 0.14500983 0.01655297 0.009976119 -0.16923387
0.02221322 0.21225052 0.011535987 -0.19473442 0.11977218 0.19584183 0.18294151 0.010292202
0.040995106 0.035314307 -0.08943707 -0.031840384 0.17802359 0.022263244 0.20566721 -0.14491132
-0.031891912 0.0025571883 -0.12987626 0.16848265 0.15240581 -0.11770738 0.19224654 0.20348169
-0.12830842 -0.0075267702 0.21746983 -0.14166811 -0.03418663 -0.14975476 0.15745695 0.035375223
0.09084372 0.15658681 -0.03462322 -0.21812789 0.010685861 -0.01688753 0.07914059 0.10186224
-0.1085136 -0.08595526 0.13756277 0.062121674 0.04998879 0.097158656 0.10146956 -0.15767446
0.01742506 0.020861432 -0.21079093 0.046309277 -0.002911672 0.16926421 -0.20828806 0.20527019
-0.10679015 0.12855698 0.16121297 -0.027074724 -0.11164381 -0.036229163 -0.13609353 0.026973113
0.09172727 0.045098856 -0.1256659 0.11923452 0.20024748 -0.066395685 0.11331241 -0.014383629
0.087957785 -0.1556288 -0.18633638 -0.0061950535 -0.18386811 0.07860844 0.20428114 -0.04279609

block0.temporal1.conv2.bias f4 [64]
00000000: 9d38 d6bd a466 1cbd 40d9 dbbb 1093 9bbc
00000010: f419 2bbd d8ab ef3c 359d 0c3e 28a3 19be
00000020: 8aee e23d a2f9 5cbe 80ec 713c a094 4bbe
00000030: 75bf 573e 85fc 3dbe 68bb f9bd f59e 133e
00000040: 2668 ec3d a5bd 2f3e 3cea 743d 27e3 48be
00000050: faaa 1cbe 99fd 183e f396 59be cb3e 493e
00000060: ac55 17bd 1c56 233d d047 19bc 1044 61bd
00000070: 5837 5bbd 623e 853d 0cfd 1cbd 6c27 173d
00000080: 1341 3b3e c8f4 a03c 9b73 2fbe 862d 29be
00000090: 5f13 0e3e 0a3e 9c3d 2c7a 2b3d 90fb debd
000000a0: 48fe 36be cb3a 403e 24fa 51be c799 debd
000000b0: b6a7 ae3d 1521 413e 708a 9abd 01eb 58be
000000c0: dcf7 4f3d e028 a1bb 9068 08bd d0dd 46be
000000d0: 61c3 1c3e c409 023d d659 813d ed4b 063e
000000e0: cf2e 423e 4848 62bd 9043 9d3c 1204 0dbe
000000f0: b0ae 28be 4249 e1bd 74a4 053d d274 0dbe
-0.10460017 -0.038183823 -0.006709248 -0.018991023 -0.041772798 0.029256746 0.13731845 -0.15003645
0.11080654 -0.21579602 0.014765859 -0.19880915 0.21069129 -0.1855336 -0.12193948 0.14416106
0.11543302 0.17162187 0.059793696 -0.19617902 -0.15299597 0.1494049 -0.21248989 0.1965286
-0.036946937 0.039877042 -0.0093555 -0.05499655 -0.053519577 0.06506039 -0.03832726 0.03690283
0.18286543 0.01964797 -0.17133944 -0.16521272 0.13874577 0.076290205 0.04186456 -0.108878255
-0.17870438 0.18772428 -0.20505577 -0.108691745 0.08528082 0.18860276 -0.07545936 -0.21183397
0.050773486 -0.0049182028 -0.033302844 -0.19420552 0.15308906 0.031747594 0.06315963 0.13114901
0.18963169 -0.055244714 0.019197255 -0.13771084 -0.16472888 -0.11000301 0.032627538 -0.13814095

block0.temporal1.conv3.weight f4 [64, 7, 1, 3]
00000000: 0e70 fd3d 9ae1 9b3d d6bc 92bd 1685 dc3d
00000010: 1f2e 273e f2e0 94bd 8ead f83d 6f57 0b3e
00000020: 458b 513e f203 24be 7dac 323e 0070 dd38
00000030: 50a7 6e3c 0004 20ba 904f 10be 8837 a3bd
00000040: 06d9 35be c87b e8bc 3484 5e3d 12c9 1ebe
00000050: 6e59 ac3d 0e3c 5bbe 6abf d73d fc61 5bbe
00000060: 00ec e2bb 1798 243e 8dba 4abe c41d 30be
00000070: 5398 d7bd bc0b b2bd f267 f2bd cdca 433e
00000080: 03ca 20be 8244 ca3d ac4c 20be be91 90bd
00000090: 0604 33be 61a6 55be 4630 f2bd 8070 ef3b
000000a0: 82bb f03d 7ed8 ae3d 6e6e b23d c361 3d3e
000000b0: 00ed 16bc 07a8 5a3e faf2 42be e044 d1bd
000000c0: 0c9b 33be 88fc 19be 3644 26be 94b3 53be
000000d0: 7def 513e 744a 2b3d 8eee e03d 5ecb 90bd
000000e0: 6406 4c3d 989d efbd d248 5dbe 58e1 a23c
000000f0: b502 093e 6018 0ebd 4242 8d3d ce29 bc3d
00000100: c58e 223e fd29 53be 24a7 b8bd 7048 6d3c
00000110: c522 573e 5dd9 573e 4a6f 17be e042 13be
00000120: e9f6 533e 68c5 84bc f41b 02be 032d e5bd
00000130: 79eb 013e 9fc5 0a3e c710 3c3e 347d 35bd
00000140: a85d 86bd c081 27bc 9549 443e 4ec0 46be
00000150: 7e40 e23d ba9c 1bbe 68ad bfbc 8748 3c3e
00000160: 3c84 9fbd aa5b b8bd 20a0 fdbb 5eda c43d
00000170: c91a 343e d134 55be d1df 2f3e 529b 98bd
00000180: 60d9 fc3c 9ac5 f6bd 64d1 613d e00a 5abe
00000190: 5b2c 0fbe 9cf6 cabd a982 0c3e e42e 6a3d
000001a0: 86d8 1dbe e049 013d 8930 593e 7cda 57be
000001b0: 9707 433e 4536 2e3e c082 443c aee4 e2bd
000001c0: a245 cb3d 2a98 d33d 4cd5 adbd 431b fdbd
000001d0: fea5 13be 2ed3 a9bd 042e 3a3d 2ec2 bf3d
000001e0: a000 8fbb 3102 413e 6633 803d 4e02 833d
000001f0: 98aa ddbd 147a 82bd 1b0a 153e 5a9b e43d
00000200: 505b d2bc 60f5 15be dc54 51be 909c 3b3c
00000210: 200d 0fbe 38c2 0cbd e8dd 14bd 715b 51be
00000220: a995 1a3e f0af 25bd e7ff 5bbe 63f6 4bbe
00000230: aa0f 32be 503e afbd 2000 5ebc ca4c b83d
00000240: 808a efbb 25d2 55be c74e 32be cb91 e4bd
00000250: af72 2f3e b031 23bc b37b 4ebe 7221 bbbd
00000260: 5afc 22be 80cb f43c f841 98bc 241c 0dbd
00000270: 8758 2d3e a231 07be 30da bc3c 6243 a2bd
00000280: 143b 1c3d 2840 31be a212 adbd 7e2a d33d
00000290: 6e0d 15be 7a26 ccbd 78cf ebbc d2a8 2ebe
000002a0: f9f4 0fbe 6ce3 90bd 20ce d1bc b82d 40bd
000002b0: 40e5 493c 6ebd 4cbe 3c99 10bd 5d3b 44be
000002c0: 6607 eb3d 6973 4b3e f67f 30be afea 20be
000002d0: cdad 583e 4399 2d3e 5690 cd3d 4627 0dbe
000002e0: 42f5 8b3d 2003 e3bb 333d 283e 9d03 0b3e
000002f0: 6848 cabc 8a37 ae3d 5c4d 43be 9cc0 193d
00000300: 6e1b 08be 736c 313e e93b 22be 9643 42be
00000310: 0a41 3ebe 9037 7fbd b063 423c 60cc ccbc
00000320: 666c b73d 515d 46be a650 03be 289f f7bc
00000330: 609d e3bb 68c6 41bd fe24 cd3d 4259 e73d
00000340: b497 20bd c04b 2ebc e480 0bbd 78cc ae3c
00000350: fa5f bbbd bc5e 0bbd fbfb 23be 95e3 3a3e
00000360: e3c1 183e e8d3 17be d063 843c ee58 03be
00000370: cc32 34bd 612e 46be 308e 6dbc 226c cbbd
00000380: 89cd 48be db5b 5b3e 5c1a 643d bf52 193e
00000390: acf9 123d 1037 383c d21f ccbd ee6c b23d
000003a0: 4351 0f3e f04c 50bc 7a45 e6bd 7d0f 333e
000003b0: 00c8 9cbc 82c8 12be 7e09 fe3d 559c 5b3e
000003c0: 4f87 523e f5b0 373e 9bb4 4a3e fc3d 5dbe
000003d0: fe78 993d 97c4 413e f4c9 10be 0cf5 6c3d
000003e0: 224a 8dbd 2862 81bc ae2f cf3d b870 843c
000003f0: 18ee 9fbd f864 28bd 0e54 a93d 4d19 e2bd
0.12374888 0.076113895 -0.07164924 0.10767572 0.16326188 -0.072694674 0.12142478 0.13607572
0.20463283 -0.1601713 0.17448612 0.00010558963 0.014566258 -0.00061041117 -0.1409285 -0.07969576
-0.17758569 -0.028379336 0.054325297 -0.1550639 0.08415495 -0.21409628 0.10534556 -0.21424097
-0.006925106 0.16073643 -0.19797726 -0.17198855 -0.105271004 -0.086936444 -0.11836232 0.19120331
-0.15702061 0.09876348 -0.15654248 -0.07059048 -0.17482004 -0.2086425 -0.11825614 0.007307112
0.11754514 0.08537386 0.08712469 0.18494324 -0.009211779 0.2135316 -0.19038 -0.10218215
-0.17539614 -0.1503774 -0.16236958 -0.20673972 0.20501514 0.04181905 0.10983001 -0.07070039
0.049810782 -0.116999805 -0.2160981 0.019882843 0.13379939 -0.034691215 0.06897403 0.09187661
0.15874775 -0.20621486 -0.090162545 0.0144826025 0.21009357 0.21079011 -0.14788547 -0.1438098
0.20699657 -0.016207412 -0.12705976 -0.11190226 0.12687482 0.13551949 0.18365775 -0.044308856
-0.06560832 -0.010223806 0.19168694 -0.19409296 0.11047457 -0.15196505 -0.023398116 0.18387042
-0.077888936 -0.090018585 -0.0077400357 0.09611963 0.17588343 -0.20820929 0.17175223 -0.074515
0.030865371 -0.12049408 0.05513133 -0.21293211 -0.13981764 -0.09910318 0.13721718 0.057173625
-0.15414628 0.031564593 0.21209921 -0.21079439 0.19045864 0.1701289 0.011994064 -0.110787734
0.09925391 0.10331757 -0.08487949 -0.123587154 -0.1441879 -0.082922325 0.04545404 0.09363209
-0.004364088 0.18848492 0.062598035 0.06396924 -0.10823554 -0.06370941 0.14554636 0.111624435
-0.025678307 -0.14644384 -0.20442528 0.011450902 -0.1396985 -0.03436491 -0.03634444 -0.20445038
0.15096153 -0.04045099 -0.21484338 -0.19918208 -0.17388788 -0.08556807 -0.0135498345 0.08999021
-0.0073102117 -0.20880945 -0.17412864 -0.1116062 0.17133592 -0.009960577 -0.20164375 -0.091372386
-0.15916577 0.029882193 -0.018586144 -0.034450665 0.16928302 -0.13202527 0.023053259 -0.079230085
0.03814228 -0.1730963 -0.084508196 0.10310839 -0.14555904 -0.09968276 -0.028785452 -0.17056587
-0.14058293 -0.07074627 -0.025610983 -0.0469186 0.012322724 -0.19994137 -0.035302386 -0.1916327
0.114760205 0.19868244 -0.17236313 -0.15714525 0.2116005 0.16952996 0.100372955 -0.13784513
0.068338886 -0.0069278628 0.16429596 0.13575597 -0.02469273 0.08506687 -0.19072479 0.037537202
-0.13291714 0.17326526 -0.15843166 -0.18971094 -0.18579498 -0.062308848 0.011864588 -0.024999797
0.08956222 -0.19371535 -0.12823734 -0.030227259 -0.006946251 -0.047308356 0.10016821 0.112963215
-0.039207175 -0.010638177 -0.034058467 0.021337733 -0.091491655 -0.034025893 -0.16014092 0.18250878
0.14917712 -0.1482693 0.016160876 -0.12826893 -0.043993756 -0.1935363 -0.014499232 -0.09932734
-0.19609655 0.21421759 0.0556892 0.14972971 0.035882637 0.011243597 -0.09967007 0.08712183
0.13995843 -0.012713656 -0.1124372 0.17486377 -0.019138336 -0.143343 0.12404154 0.21446355
0.20559429 0.17938598 0.19795458 -0.21605676 0.074937806 0.1892265 -0.14139539 0.057850882
-0.06898905 -0.015793875 0.10116516 0.01616703 -0.07809085 -0.041111916 0.08267985 -0.11039982

block0.temporal1.conv3.bias f4 [64]
00000000: 6b03 21be 8b34 c6bd 38ed be3c 0a93 883d
00000010: fa0d 913d bc59 723d be78 33be b4db 35be
00000020: 7bcd 3c3e edbb 39be ecec 84bd cbad 033e
00000030: f5fd 293e bd03 193e 429a a3bd 9a89 af3d
00000040: dafc bf3d 7668 19be 1092 18be 8026 853c
00000050: f33b 463e c4e2 92bd ae4d 8b3d 6111 263e
00000060: 9658 ff3d 82b2 b13d 78b5 88bd f17e 013e
00000070: ffba 54be 10a1 7e3c 8856 ed3c 2cb7 4dbd
00000080: ed6d 4f3e 6203 53be b8b8 0dbe 3db7 3b3e
00000090: a06b 76bd bca7 1a3d a800 b23c 2151 373e
000000a0: 4024 413b bc55 87bd dac6 a6bd 0ccd 8fbd
000000b0: 4b18 1cbe 9224 9d3d 2080 5ebc 6a78 0dbe
000000c0: b428 72bd 2434 3cbd 12a2 953d 19b5 19be
000000d0: 6b82 583e 3f1e 4ebe 5135 593e 0060 f33a
000000e0: 2285 a93d d245 973d 17a2 3fbe 53de 48be
000000f0: ac61 0d3d ccc9 48bd 5f22 c8bd 232d c2bd
-0.1572396 -0.096779905 0.023306474 0.066686705 0.07082744 0.05916761 -0.17526528 -0.17759591
0.1843776 -0.18138094 -0.06490502 0.12859266 0.16600783 0.14942832 -0.07988407 0.08571167
0.093743995 -0.14981255 -0.14899468 0.01625371 0.19358806 -0.07172158 0.068019256 0.16217567
0.12468068 0.08676626 -0.066752374 0.1264608 -0.20774458 0.01554133 0.028971925 -0.050223514
0.20256777 -0.20606759 -0.13839996 0.18331619 -0.060161233 0.03775762 0.021728829 0.17902042
0.002947107 -0.066081494 -0.08143397 -0.070215315 -0.15243642 0.07672991 -0.013580352 -0.13815466
-0.05912085 -0.045948163 0.07306303 -0.1501049 0.211435 -0.20128725 0.21211745 0.0018568039
0.08277346 0.07386364 -0.18714176 -0.1961606 0.034516975 -0.049020573 -0.09772181 -0.094812654

block0.linear.weight f4 [64, 7]
00000000: 2b67 41be c247 863e f372 b9be 5434 c9be
00000010: e832 033e bcf9 503e 064a d1bd 4c95 ddbe
00000020: dfd9 503e 2e19 893e 1f22 2bbe 79cb cc3e
00000030: 025d 46be 15bf 803e 8682 143e 8969 afbe
00000040: 2d0a e43d 0f4c ffbd 06a1 1a3d 80ec 693d
00000050: 5d8e 01be 8280 f23d 9399 6b3e 08e5 36be
00000060: cc56 973d 257b d2be 129f a73d ba49 0abe
00000070: ca93 fd3d f162 debd 421e 95be 1806 96be
00000080: caf3 f7be d067 8cbe 04d8 1ebe ddae e53e
00000090: fa18 91be 176e febd 20b9 29be f1fc b3be
000000a0: 07b4 7c3c 17cf 3cbe aeed 553d 0a0d 6ebe
000000b0: e90b 0e3e a6af a83e ac5e 523e 7ef2 a93e
000000c0: d92a 053e 53b7 9fbe 15c5 e73d b0cc ddbe
000000d0: 7e00 043e 9eb4 03bf 5898 ff3c 72e9 673e
000000e0: 12ea d3bd f668 64bd 5e41 b13e 223b d6be
000000f0: 7662 b4be 2b2d ca3e 015d 113e 00e9 af3c
00000100: 8bc1 c8be 17d1 793e 6048 8d3c 0a92 62be
00000110: 3403 be3d 74b5 0f3c 2fed 0d3e f4e0 cabd
00000120: 192e 383e 36f7 de3e ed98 913d cbf1 cabe
00000130: dc21 3abe 0323 a3bd 83ec 1b3e 0867 aebe
00000140: b65c 21bf aa47 7abe 4dfa 69be a71c 2d3d
00000150: 7ccd 6abe 703b efbd 81f9 b43e 1036 293e
00000160: b1c3 c63d dde9 8e3e 0a73 fabd 6a4b 233e
00000170: 6f7b 8f3d 6b1f d9be 5442 873d 2d58 bcbe
00000180: 19d0 71be 6211 40be e92e bbbe 8a1a ab3e
00000190: dd00 b23e f6ec bc3d 0b52 90be 48c4 b23e
000001a0: 700b d5bd ccc3 2dbe 9dae ddbe 28b9 403e
000001b0: b761 debe 8d0f d53c fef0 90be dd78 103e
000001c0: 289a 27be 467e 5bbe 747c 78be 1cee ebbe
000001d0: da8b 953e 9047 a2bd 075f 20be 5ce2 de3e
000001e0: 983b 573d 9cae d9be 81d9 e1be dc7c d3bc
000001f0: 6156 c0be 1960 3b3e df22 93be 86e2 c7be
00000200: fc42 ac3e bccd 343d 7b68 973e ceec 9bbd
00000210: 3271 7dbe e8d7 593e 78e8 9ebd 5dbb 3a3e
00000220: 6a64 83bd bbcc 0dbe f7d9 1dbe 2943 17bd
00000230: e9c4 b53d b773 8a3e 1a5d acbe ea04 ddbe
00000240: 6972 9d3e e501 98bd ed2c 1ebe b4be e2be
00000250: 5a8a 4c3e 73f8 dc3e 541c b53d 80f2 0f3f
00000260: 9896 b43e 1f96 553e 4266 21be 0dfe b7bd
00000270: d2f7 8c3d 769e 55be 265a 183e 74bf bcbd
00000280: ca50 133e de03 323e 4622 15be 8b89 d33e
00000290: 28bd 02be 0617 803e c1d4 883e 3121 45be
000002a0: 2613 92bc e0ff bf3e ce06 c6be 2d01 ffbe
000002b0: d85c 0dbf 4137 bb3e d1f8 503e 34cf 0d3e
000002c0: 8879 0e3e c405 ccbe 93ad b83d 1e5f 80be
000002d0: 806d 803e 5c84 6cbd 41d2 52be 6e3b aa3e
000002e0: dfef 773d 91b1 5bbe a89b 82be 7ccc babe
000002f0: cf25 4d3d c56d c3bd 881b 27bd 9614 a83e
00000300: 160d 89be a581 0cbe bcfe 2cbe 5a4b 80bd
00000310: 899f b0bd e2d1 cdbd db8b 593e 9a54 cebe
00000320: e2f3 a83e e5a3 1f3c ba11 26be f70d 1fbe
00000330: c054 17bb c65d bf3e 8ef0 2f3f 0465 3ebd
00000340: 8b84 d6be 8c41 3f3e 4ae3 cf3e 296a 7a3e
00000350: 9e43 e6be 6a53 313e e750 a7bd 1a53 40be
00000360: f982 df3c 3ae5 73bd f7eb 87be 2349 943e
00000370: e46f 85be 22e3 ca3e 28c5 193e f804 df3c
00000380: 0802 91be 001c 4b3d 1656 f73d 904c 02bf
00000390: a04f 743c 2999 033f 55da d2bb 7e10 cd3e
000003a0: fcbd fabd d5ab f3be b223 bdbe cc0b e1be
000003b0: 24a1 393e 9db0 3abc 960f 90be 9a02 1ebd
000003c0: 6695 9cbe bba7 513d 1e9f 5c3e f115 0e3e
000003d0: d297 c4bd 385f af3e b40e af3e 9675 f8be
000003e0: c9ac cfbe 56a3 433c 772e 9bbe 7c48 e83c
000003f0: d341 353e 908c c3be 8b92 9b3e e946 c4be
-0.18887012 0.26226622 -0.36220512 -0.39297736 0.12812388 0.20407766 -0.10219197 -0.43277967
0.20395611 0.26777023 -0.16712235 0.39998987 -0.19371417 0.25145784 0.14502916 -0.34260204
0.111347534 -0.12465679 0.03775122 0.05711031 -0.12651964 0.11840917 0.23007803 -0.17860806
0.07389602 -0.41109577 0.08184637 -0.13504687 0.12381704 -0.10858715 -0.29124647 -0.29301524
-0.48428184 -0.27422953 -0.15512091 0.44859973 -0.28339368 -0.12423342 -0.16574526 -0.35153916
0.015423781 -0.18438374 0.052228622 -0.23247162 0.13871731 0.3294651 0.20543927 0.3319282
0.13004626 -0.31194553 0.11316887 -0.43320227 0.12890813 -0.51447475 0.031200573 0.22647646
-0.1034738 -0.05576416 0.34620184 -0.4184199 -0.3523137 0.39487585 0.14195634 0.021473408
-0.39210162 0.24396168 0.017246425 -0.22126022 0.09277955 0.008771289 0.1386001 -0.09906188
0.17986335 0.43547982 0.071092464 -0.39637598 -0.18176979 -0.07965662 0.15226941 -0.34062982
-0.6303209 -0.244414 -0.22849388 0.042263653 -0.22929949 -0.11681259 0.35346606 0.1652453
0.09705294 0.279128 -0.12228973 0.15946737 0.07005965 -0.42406783 0.06604448 -0.36786023
-0.23614539 -0.18756631 -0.36559227 0.33418685 0.34766284 0.09224884 -0.28187594 0.34915376
-0.10402572 -0.16969222 -0.43297282 0.18820632 -0.43433926 0.026008392 -0.28308862 0.14108606
-0.163674 -0.21434888 -0.24266225 -0.460801 0.2920826 -0.07923806 -0.1566125 0.43532073
0.052547067 -0.4251603 -0.44111255 -0.025816374 -0.37565902 0.18298377 -0.28737542 -0.3904001
0.33644855 0.044141516 0.295719 -0.07613526 -0.24750212 0.21273768 -0.07759184 0.18235536
-0.06415637 -0.1384763 -0.15415178 -0.036929283 0.08875448 0.27041408 -0.3366478 -0.43167812
0.3075135 -0.07422236 -0.15446825 -0.4428612 0.19974652 0.43158302 0.08843294 0.562294
0.35271144 0.20858048 -0.15761665 -0.08984003 0.068832055 -0.2086123 0.14878139 -0.09216204
0.14386287 0.17384288 -0.14563856 0.41315874 -0.1276747 0.25017565 0.26724818 -0.19250943
-0.017831396 0.37499905 -0.38677067 -0.49805585 -0.55219793 0.36565593 0.20407416 0.13848573
0.13913548 -0.3984815 0.09017482 -0.2507257 0.25083542 -0.057743415 -0.20588018 0.33248466
0.060531493 -0.21454455 -0.2550938 -0.36484134 0.050084885 -0.09542421 -0.04079774 0.32828206
-0.26767796 -0.1372133 -0.16894048 -0.06264372 -0.08624179 -0.100497976 0.21244757 -0.4029892
0.32998568 0.009743665 -0.162177 -0.15532671 -0.0023091286 0.3737623 0.6872643 -0.046483055
-0.41897997 0.18677348 0.40603095 0.2445456 -0.44973463 0.17316976 -0.08169728 -0.187817
0.027284132 -0.05954478 -0.26547214 0.2896205 -0.26061928 0.39626414 0.15016615 0.027224049
-0.28321862 0.04958725 0.120769665 -0.50898075 0.014911562 0.5140558 -0.0064347186 0.40051645
-0.12243268 -0.47592035 -0.36941296 -0.43954313 0.18127877 -0.011394647 -0.2813689 -0.0385767
-0.30582732 0.05118535 0.21545073 0.13875557 -0.0959927 0.34252334 0.34190905 -0.4852721
-0.40561512 0.011940798 -0.30308887 0.028354876 0.17700891 -0.38193178 0.3038524 -0.3833535

block0.linear.bias f4 [64]
00000000: 3320 fcbc 6af5 a1be 8701 50be c96f 1d3e
00000010: e175 263e a215 1dbc a20a c1be 176b 74be
00000020: 6717 6e3e fb97 203d cfba a1be 78c9 96be
00000030: 5802 74be 272c 68be 1c8e 813e 1eeb ba3e
00000040: dc29 18bd d263 923e f79e 993d a1a2 57be
00000050: 1367 7abd 720f 26be eff5 57be cd96 353e
00000060: 6ec0 453d 629c 633e 95cd 4c3e 8fba 813e
00000070: 60d8 7d3d d86b 803c e690 7b3e f1d8 86be
00000080: 3201 d7bd f48e 0d3e 3880 56bc 1d8b 06bd
00000090: 0d76 5b3e b051 443e 6f8e 32be 893f 85bd
000000a0: 89dc 92be 26ad 6e3e ef25 603d 57cc 08bd
000000b0: ed0c 7d3e 087c f4bd 7f78 1c3e 42d0 7abd
000000c0: 621f 853e 8e13 603e 2018 763e 5b45 2cbc
000000d0: fd1d 123e 59e3 c3be 3aa3 923e 2c88 993d
000000e0: ef64 2d3e 9ef7 a9be f686 babd 0fdf 7d3e
000000f0: 2388 3abe 1330 f53d 2561 9d3e a8f3 4b3e
-0.030777073 -0.3163255 -0.20313083 0.15374674 0.16255905 -0.009587677 -0.37703425 -0.23868977
0.23251115 0.03920744 -0.31587836 -0.29450583 -0.23829019 -0.22673093 0.25303733 0.36507505
-0.037149295 0.28591782 0.07501023 -0.21058132 -0.061133455 -0.1621683 -0.2108991 0.17733307
0.04827922 0.22227624 0.20000298 0.25337645 0.06197393 0.015676424 0.24566993 -0.26337388
-0.10498275 0.13824064 -0.013092093 -0.032847513 0.21431752 0.19171786 -0.17437147 -0.06506259
-0.2868388 0.23308238 0.054723676 -0.033398 0.24711962 -0.119377196 0.1528034 -0.061233766
0.26000506 0.2188246 0.2403264 -0.0105145825 0.14269252 -0.3825939 0.28640157 0.07496676
0.16933034 -0.3319673 -0.09107773 0.24792121 -0.18215995 0.1197206 0.30738178 0.19917166

block0.temporal2.conv1.weight f4 [64, 64, 1, 3]
00000000: 981a 893d 7fd3 13bd 1297 4fbd 6cbd a93c
00000010: fc3a 32bc 5c33 51bd aafb 89bd 804b 713d
00000020: e19a 1fbd a656 803d 906c 4ebd 2cf4 143d
00000030: 2e44 e1bc a610 553d c23a 8e3d 00f0 793d
00000040: 6c13 16bd 2c28 a4bc 87e3 3bbd fcaa 43bc
00000050: f84e b33c 18fa 4a3d 721d 0dbd ae31 3e3d
00000060: ec01 75bc 8004 d43a 901d 42bd 50df 8a3c
00000070: 009e 143c 9865 403d 10ff 533d 74f9 703d
00000080: c431 2c3d 400b c7ba 1e9b 303d c48b 5c3d
00000090: 34e2 513d 88cc 3c3d e6f2 c0bc 600f 443b
000000a0: 2ef3 efbc 8211 153d 30f7 88bc a8e6 91bd
000000b0: ab3b 00bd 184d 62bd 68b0 7a3c 54df 553d
000000c0: 4087 68bb 4cb3 efbc c239 b8bc 869d 6cbd
000000d0: 3a91 043d 8a06 2e3d 82db 51bd 3ee5 533d
000000e0: 8c98 ca3c b8cd 81bd 5eb4 333d 70f6 a1bb
000000f0: fd1c 1abd 5470 103d 0f97 1abd 10f0 623c
00000100: daf6 8d3d f6ed 243d b6c6 3e3d 0532 21bd
00000110: e86b 2cbd 00f9 c13c 00e1 6b3a 288a 583d
00000120: 9e1e 823d a490 6b3d a880 ae3c 0611 41bd
00000130: 0097 ab3b c8c1 183c 9d4f 34bd 80f5 10bc
00000140: 985f 193c 54f0 4fbd a02d 053c 8c08 85bd
00000150: e415 1a3d 57b2 1cbd a458 da3c a88a 21bc
00000160: f501 31bd 6445 973c dc26 5dbd 9e0e 373d
00000170: 6036 a43b e8b7 7f3c d4d1 3a3d eab5 453d
00000180: 508e 6d3d f8f9 443d 00e0 30bc 00ef 1eba
00000190: b8ea 7cbd 78e4 843c 802b ca3a a299 573d
000001a0: e286 563d 0413 35bc 2bab 18bd d0b7 473d
000001b0: 3030 7c3c 2d5f 1abd 97d3 3fbd 19d7 91bd
000001c0: 1e65 063d f42f dd3c 1878 a63c 18a5 193d
000001d0: 9ec8 2abd 506b 8d3d 9651 133d acfe be3c
000001e0: 545f 6ebc 7206 81bd 8cf1 803c 10ab 683c
000001f0: b0c1 3f3c 7a33 103d 5c3c 0bbd e84e 8a3d
00000200: 8000 0f3b b1b9 86bd e23d 06bd f08e 903c
00000210: f07c 4d3d da10 fbbc c8bc 06bd c0c8 44bb
00000220: b09b 8cbd 8e2e d5bc 3629 38bd 905c 7f3d
00000230: fae7 39bd 5099 c7bb 3453 603d a0bc 64bc
00000240: 4049 743d 8cc7 18bd 10c4 ccbb 005b 673b
00000250: 817d 4fbd 2c47 2f3d 207e 06bb 95e8 92bd
00000260: 9c8c f03c 6464 eabc 1045 1ebd 64da e73c
00000270: 483c 953c ac0d 35bd 50cc d53c 306a 143c
00000280: 2087 c0bc 2826 463d a07d 0f3b e872 043d
00000290: 1cf2 7bbc 20f1 c73c 9850 8f3c ec0c 663d
000002a0: f273 80bd cc88 84bc 76e3 1d3d b9be 07bd
000002b0: 10cf 57bd 2ca9 3e3d 1e53 173d cc88 883d
000002c0: 080c e53c d275 9ebc d45c 65bd 40e2 3ebd
000002d0: bceb ae3c 7065 61bc d8a1 8b3d 0844 433d
000002e0: 304d cd3b 24d4 8e3d 98bf 023c c88e 7d3c
000002f0: ccbb 903d e0a6 10bc 008c b63c 2009 90bb
00000300: b413 893d 9a0c 023d d07c c3bc cff0 82bd
00000310: d00a 143c 0052 44b9 8030 ff3c 187f f93c
00000320: 5e26 87bd 352d 74bd fc83 a1bc c2ca 7dbd
00000330: 6090 693b 882e 303d dc56 8e3d 609c 79bb
00000340: 249e 62bd a246 4a3d 2f9e 49bd 5afb 4e3d
00000350: 008e d1bc ec00 0dbd 066b 3a3d cc4e a93c
00000360: 9c02 a4bc f470 343d 0228 82bd d064 a5bc
00000370: f10b 21bd a2d1 59bd 39b1 81bd afb0 39bd
00000380: 585b cb3c 34bb 20bd 9eaf 853d 749b 67bc
00000390: 8434 8b3c f420 583d 4c49 873c 2e41 3fbd
000003a0: b409 29bc 4059 45bc e194 05bd 003b 313c
000003b0: fccc 60bd e0eb 763c 36fc 49bd 68c2 683d
000003c0: 20d4 0abc d8e2 82bd 0fa7 5fbd a229 83bd
000003d0: e05a c63b 80af 813b da03 15bd 86a0 0fbd
000003e0: 8405 60bd 9c21 2dbd 3ca6 ddbc 38b7 2fbd
000003f0: 68c9 cb3c 64e9 e53c 3a92 04bd 8068 f23a
0.066945255 -0.03609037 -0.05068118 0.020720206 -0.010878321 -0.05107437 -0.06737454 0.058909893
-0.038966063 0.06266527 -0.050396502 0.036365673 -0.02749833 0.05201783 0.06944801 0.061019897
-0.036639616 -0.020038687 -0.045871284 -0.011942621 0.021888241 0.049554914 -0.03445191 0.046434097
-0.0149540715 0.0016175658 -0.047391474 0.016952187 0.009070873 0.046971887 0.05175692 0.058831647
0.042039648 -0.0015185848 0.04311668 0.05384423 0.051241115 0.046093494 -0.023553323 0.002991639
-0.029290762 0.03639365 -0.01671943 -0.07124072 -0.031306904 -0.055249304 0.015300848 0.052214935
-0.0035481006 -0.0292603 -0.022488479 -0.057767414 0.03236506 0.042486705 -0.05123473 0.051732294
0.024730943 -0.06338066 0.043873183 -0.0049427077 -0.0376253 0.035263374 -0.037741717 0.013851181
0.06931849 0.040266 0.046576224 -0.039354343 -0.042095095 0.023678303 0.0008998066 0.05286613
0.06353496 0.057510987 0.021301582 -0.047135375 0.0052365065 0.009323545 -0.044021238 -0.008847594
0.00936117 -0.050766304 0.008128554 -0.06495771 0.037618533 -0.038256016 0.026653595 -0.009859718
-0.043214757 0.018465705 -0.053992137 0.044691674 0.005011365 0.0156078115 0.045610264 0.04826919
0.057997048 0.04808995 -0.010795593 -0.00060628355 -0.061747283 0.016222224 0.0015424341 0.05263675
0.052374728 -0.011051897 -0.037272613 0.04875928 0.015392348 -0.037688423 -0.046832647 -0.07121105
0.032811277 0.027000405 0.020320937 0.03751096 -0.04169523 0.06905234 0.03596648 0.023314796
-0.014549095 -0.063000575 0.015740179 0.014200941 0.011703894 0.035205342 -0.03399311 0.067533314
0.0021820366 -0.065783866 -0.03277386 0.017646283 0.050167978 -0.030647684 -0.03289488 -0.0030026883
-0.068656325 -0.026023176 -0.044961177 0.062344134 -0.045387246 -0.0060912743 0.05476685 -0.013960987
0.05964017 -0.037299678 -0.0062489584 0.0035302043 -0.0506568 0.042792484 -0.0020521954 -0.07173268
0.029363923 -0.028612323 -0.038640082 0.028302379 0.01821722 -0.04420249 0.0260984 0.00905852
-0.023501933 0.048376232 0.0021894947 0.032336146 -0.015377548 0.02440697 0.017494485 0.056164667
-0.06272115 -0.016178511 0.038547 -0.03314087 -0.052687705 0.046548054 0.0369445 0.06666717
0.027959839 -0.01934329 -0.05599673 -0.046602488 0.021352641 -0.013757095 0.068179786 0.0476723
0.006265305 0.06974056 0.00798025 0.015475936 0.070670694 -0.008828849 0.022283554 -0.004395619
0.06693211 0.0317503 -0.023863226 -0.06393587 0.009035781 -0.00018722564 0.031151056 0.03045611
-0.06599115 -0.059613425 -0.019716255 -0.061960943 0.0035639033 0.043013126 0.06950161 -0.0038087592
-0.055326596 0.049383767 -0.04922312 0.050532676 -0.025580406 -0.034424707 0.04551222 0.020667456
-0.020020775 0.044053033 -0.06355287 -0.020189673 -0.03931803 -0.053178437 -0.06332631 -0.045334514
0.02482383 -0.03924103 0.06527637 -0.014136184 0.016992815 0.0527658 0.016514443 -0.04669302
-0.010317255 -0.012045205 -0.032612685 0.010817289 -0.05488299 0.015070885 -0.049312793 0.056826025
-0.008473426 -0.06390923 -0.05460268 -0.06404425 0.0060533136 0.003957689 -0.036380626 -0.035065196
-0.05469276 -0.04226838 -0.027056806 -0.04289934 0.024876311 0.02806539 -0.032366015 0.0018494278

block0.temporal2.conv1.bias f4 [64]
00000000: c2f4 113d 1fb6 36bd c8ee 43bc f254 80bd
00000010: de20 1dbd 0aa6 363d 8050 2b3a 34f0 843c
00000020: 6021 f63c d023 e03c a0ee 31bc 4a7a c4bc
00000030: 3057 f53b 1479 883d d011 a13c 68a9 32bc
00000040: b0aa 313d d6c9 55bd 1ab6 3cbd 99bb 10bd
00000050: 8cb3 8c3d 00f4 683a ca0f 5abd 50c3 303d
00000060: 4c92 8c3d 7284 0d3d c07c b43a acd3 f9bc
00000070: 3036 e93b 80fb c83c aaa1 f1bc 59ec 1dbd
00000080: 3872 193c 9498 253d 0ed5 c7bc 0057 ccba
00000090: 8d59 55bd 6825 253c c8bd 14bd 60d3 7d3d
000000a0: dc8d 203d 8404 52bd 2054 4dbd 2245 59bd
000000b0: f0e8 81bd 5067 603d 3082 0cbc 727f 423d
000000c0: 06de 303d 54a3 8bbc a487 4c3d 1037 343c
000000d0: e0ff 793d a820 5a3c b8ef f13c 4c95 763d
000000e0: 28c0 00bc 50e4 1c3d 007a bd39 9484 82bd
000000f0: 1c6e 233d 0af4 49bd a0a5 1dbb 4ac2 823d
0.03563381 -0.044607278 -0.011958785 -0.06266202 -0.038361423 0.04459194 0.0006535128 0.016227819
0.030045211 0.027360827 -0.010860115 -0.023984093 0.0074872 0.06663719 0.019661814 -0.010904647
0.04337567 -0.05219444 -0.046072103 -0.035335157 0.06870183 0.00088864565 -0.053237714 0.043155015
0.068638414 0.034550138 0.0013770089 -0.03049644 0.0071170554 0.024533987 -0.029496033 -0.038555477
0.009365611 0.040428713 -0.024393585 -0.0015589893 -0.052087355 0.010079719 -0.036313802 0.06196916
0.039197788 -0.051273838 -0.050129056 -0.053044446 -0.063432574 0.054786026 -0.008575961 0.047484823
0.043180488 -0.017045654 0.049934044 0.010999456 0.061035037 0.01331345 0.029533252 0.060200974
-0.007858314 0.038303673 0.00036139786 -0.063729435 0.03989993 -0.049305 -0.002405502 0.06384714
